index:  0
input size:  torch.Size([4, 3, 299, 299])
layer:  BasicConv2d(
  (conv): Conv2d(3, 32, kernel_size=(3, 3), stride=(2, 2), bias=False)
  (bn): BatchNorm2d(32, eps=0.001, momentum=0.1, affine=True, track_running_stats=True)
)
output size:  torch.Size([4, 32, 149, 149])
________________________________
index:  1
input size:  torch.Size([4, 32, 149, 149])
layer:  BasicConv2d(
  (conv): Conv2d(32, 32, kernel_size=(3, 3), stride=(1, 1), bias=False)
  (bn): BatchNorm2d(32, eps=0.001, momentum=0.1, affine=True, track_running_stats=True)
)
output size:  torch.Size([4, 32, 147, 147])
________________________________
index:  2
input size:  torch.Size([4, 32, 147, 147])
layer:  BasicConv2d(
  (conv): Conv2d(32, 64, kernel_size=(3, 3), stride=(1, 1), padding=(1, 1), bias=False)
  (bn): BatchNorm2d(64, eps=0.001, momentum=0.1, affine=True, track_running_stats=True)
)
output size:  torch.Size([4, 64, 147, 147])
________________________________
index:  3
input size:  torch.Size([4, 64, 147, 147])
layer:  BasicConv2d(
  (conv): Conv2d(64, 80, kernel_size=(1, 1), stride=(1, 1), bias=False)
  (bn): BatchNorm2d(80, eps=0.001, momentum=0.1, affine=True, track_running_stats=True)
)
output size:  torch.Size([4, 80, 147, 147])
________________________________
index:  4
input size:  torch.Size([4, 80, 147, 147])
layer:  BasicConv2d(
  (conv): Conv2d(80, 192, kernel_size=(3, 3), stride=(1, 1), bias=False)
  (bn): BatchNorm2d(192, eps=0.001, momentum=0.1, affine=True, track_running_stats=True)
)
output size:  torch.Size([4, 192, 145, 145])
________________________________
index:  5
input size:  torch.Size([4, 192, 145, 145])
layer:  InceptionA(
  (branch1x1): BasicConv2d(
    (conv): Conv2d(192, 64, kernel_size=(1, 1), stride=(1, 1), bias=False)
    (bn): BatchNorm2d(64, eps=0.001, momentum=0.1, affine=True, track_running_stats=True)
  )
  (branch5x5_1): BasicConv2d(
    (conv): Conv2d(192, 48, kernel_size=(1, 1), stride=(1, 1), bias=False)
    (bn): BatchNorm2d(48, eps=0.001, momentum=0.1, affine=True, track_running_stats=True)
  )
  (branch5x5_2): BasicConv2d(
    (conv): Conv2d(48, 64, kernel_size=(5, 5), stride=(1, 1), padding=(2, 2), bias=False)
    (bn): BatchNorm2d(64, eps=0.001, momentum=0.1, affine=True, track_running_stats=True)
  )
  (branch3x3dbl_1): BasicConv2d(
    (conv): Conv2d(192, 64, kernel_size=(1, 1), stride=(1, 1), bias=False)
    (bn): BatchNorm2d(64, eps=0.001, momentum=0.1, affine=True, track_running_stats=True)
  )
  (branch3x3dbl_2): BasicConv2d(
    (conv): Conv2d(64, 96, kernel_size=(3, 3), stride=(1, 1), padding=(1, 1), bias=False)
    (bn): BatchNorm2d(96, eps=0.001, momentum=0.1, affine=True, track_running_stats=True)
  )
  (branch3x3dbl_3): BasicConv2d(
    (conv): Conv2d(96, 96, kernel_size=(3, 3), stride=(1, 1), padding=(1, 1), bias=False)
    (bn): BatchNorm2d(96, eps=0.001, momentum=0.1, affine=True, track_running_stats=True)
  )
  (branch_pool): BasicConv2d(
    (conv): Conv2d(192, 32, kernel_size=(1, 1), stride=(1, 1), bias=False)
    (bn): BatchNorm2d(32, eps=0.001, momentum=0.1, affine=True, track_running_stats=True)
  )
)
output size:  torch.Size([4, 256, 145, 145])
________________________________
index:  6
input size:  torch.Size([4, 256, 145, 145])
layer:  InceptionA(
  (branch1x1): BasicConv2d(
    (conv): Conv2d(256, 64, kernel_size=(1, 1), stride=(1, 1), bias=False)
    (bn): BatchNorm2d(64, eps=0.001, momentum=0.1, affine=True, track_running_stats=True)
  )
  (branch5x5_1): BasicConv2d(
    (conv): Conv2d(256, 48, kernel_size=(1, 1), stride=(1, 1), bias=False)
    (bn): BatchNorm2d(48, eps=0.001, momentum=0.1, affine=True, track_running_stats=True)
  )
  (branch5x5_2): BasicConv2d(
    (conv): Conv2d(48, 64, kernel_size=(5, 5), stride=(1, 1), padding=(2, 2), bias=False)
    (bn): BatchNorm2d(64, eps=0.001, momentum=0.1, affine=True, track_running_stats=True)
  )
  (branch3x3dbl_1): BasicConv2d(
    (conv): Conv2d(256, 64, kernel_size=(1, 1), stride=(1, 1), bias=False)
    (bn): BatchNorm2d(64, eps=0.001, momentum=0.1, affine=True, track_running_stats=True)
  )
  (branch3x3dbl_2): BasicConv2d(
    (conv): Conv2d(64, 96, kernel_size=(3, 3), stride=(1, 1), padding=(1, 1), bias=False)
    (bn): BatchNorm2d(96, eps=0.001, momentum=0.1, affine=True, track_running_stats=True)
  )
  (branch3x3dbl_3): BasicConv2d(
    (conv): Conv2d(96, 96, kernel_size=(3, 3), stride=(1, 1), padding=(1, 1), bias=False)
    (bn): BatchNorm2d(96, eps=0.001, momentum=0.1, affine=True, track_running_stats=True)
  )
  (branch_pool): BasicConv2d(
    (conv): Conv2d(256, 64, kernel_size=(1, 1), stride=(1, 1), bias=False)
    (bn): BatchNorm2d(64, eps=0.001, momentum=0.1, affine=True, track_running_stats=True)
  )
)
output size:  torch.Size([4, 288, 145, 145])
________________________________
index:  7
input size:  torch.Size([4, 288, 145, 145])
layer:  InceptionA(
  (branch1x1): BasicConv2d(
    (conv): Conv2d(288, 64, kernel_size=(1, 1), stride=(1, 1), bias=False)
    (bn): BatchNorm2d(64, eps=0.001, momentum=0.1, affine=True, track_running_stats=True)
  )
  (branch5x5_1): BasicConv2d(
    (conv): Conv2d(288, 48, kernel_size=(1, 1), stride=(1, 1), bias=False)
    (bn): BatchNorm2d(48, eps=0.001, momentum=0.1, affine=True, track_running_stats=True)
  )
  (branch5x5_2): BasicConv2d(
    (conv): Conv2d(48, 64, kernel_size=(5, 5), stride=(1, 1), padding=(2, 2), bias=False)
    (bn): BatchNorm2d(64, eps=0.001, momentum=0.1, affine=True, track_running_stats=True)
  )
  (branch3x3dbl_1): BasicConv2d(
    (conv): Conv2d(288, 64, kernel_size=(1, 1), stride=(1, 1), bias=False)
    (bn): BatchNorm2d(64, eps=0.001, momentum=0.1, affine=True, track_running_stats=True)
  )
  (branch3x3dbl_2): BasicConv2d(
    (conv): Conv2d(64, 96, kernel_size=(3, 3), stride=(1, 1), padding=(1, 1), bias=False)
    (bn): BatchNorm2d(96, eps=0.001, momentum=0.1, affine=True, track_running_stats=True)
  )
  (branch3x3dbl_3): BasicConv2d(
    (conv): Conv2d(96, 96, kernel_size=(3, 3), stride=(1, 1), padding=(1, 1), bias=False)
    (bn): BatchNorm2d(96, eps=0.001, momentum=0.1, affine=True, track_running_stats=True)
  )
  (branch_pool): BasicConv2d(
    (conv): Conv2d(288, 64, kernel_size=(1, 1), stride=(1, 1), bias=False)
    (bn): BatchNorm2d(64, eps=0.001, momentum=0.1, affine=True, track_running_stats=True)
  )
)
output size:  torch.Size([4, 288, 145, 145])
________________________________
index:  8
input size:  torch.Size([4, 288, 145, 145])
layer:  InceptionB(
  (branch3x3): BasicConv2d(
    (conv): Conv2d(288, 384, kernel_size=(3, 3), stride=(2, 2), bias=False)
    (bn): BatchNorm2d(384, eps=0.001, momentum=0.1, affine=True, track_running_stats=True)
  )
  (branch3x3dbl_1): BasicConv2d(
    (conv): Conv2d(288, 64, kernel_size=(1, 1), stride=(1, 1), bias=False)
    (bn): BatchNorm2d(64, eps=0.001, momentum=0.1, affine=True, track_running_stats=True)
  )
  (branch3x3dbl_2): BasicConv2d(
    (conv): Conv2d(64, 96, kernel_size=(3, 3), stride=(1, 1), padding=(1, 1), bias=False)
    (bn): BatchNorm2d(96, eps=0.001, momentum=0.1, affine=True, track_running_stats=True)
  )
  (branch3x3dbl_3): BasicConv2d(
    (conv): Conv2d(96, 96, kernel_size=(3, 3), stride=(2, 2), bias=False)
    (bn): BatchNorm2d(96, eps=0.001, momentum=0.1, affine=True, track_running_stats=True)
  )
)
output size:  torch.Size([4, 768, 72, 72])
________________________________
index:  9
input size:  torch.Size([4, 768, 72, 72])
layer:  InceptionC(
  (branch1x1): BasicConv2d(
    (conv): Conv2d(768, 192, kernel_size=(1, 1), stride=(1, 1), bias=False)
    (bn): BatchNorm2d(192, eps=0.001, momentum=0.1, affine=True, track_running_stats=True)
  )
  (branch7x7_1): BasicConv2d(
    (conv): Conv2d(768, 128, kernel_size=(1, 1), stride=(1, 1), bias=False)
    (bn): BatchNorm2d(128, eps=0.001, momentum=0.1, affine=True, track_running_stats=True)
  )
  (branch7x7_2): BasicConv2d(
    (conv): Conv2d(128, 128, kernel_size=(1, 7), stride=(1, 1), padding=(0, 3), bias=False)
    (bn): BatchNorm2d(128, eps=0.001, momentum=0.1, affine=True, track_running_stats=True)
  )
  (branch7x7_3): BasicConv2d(
    (conv): Conv2d(128, 192, kernel_size=(7, 1), stride=(1, 1), padding=(3, 0), bias=False)
    (bn): BatchNorm2d(192, eps=0.001, momentum=0.1, affine=True, track_running_stats=True)
  )
  (branch7x7dbl_1): BasicConv2d(
    (conv): Conv2d(768, 128, kernel_size=(1, 1), stride=(1, 1), bias=False)
    (bn): BatchNorm2d(128, eps=0.001, momentum=0.1, affine=True, track_running_stats=True)
  )
  (branch7x7dbl_2): BasicConv2d(
    (conv): Conv2d(128, 128, kernel_size=(7, 1), stride=(1, 1), padding=(3, 0), bias=False)
    (bn): BatchNorm2d(128, eps=0.001, momentum=0.1, affine=True, track_running_stats=True)
  )
  (branch7x7dbl_3): BasicConv2d(
    (conv): Conv2d(128, 128, kernel_size=(1, 7), stride=(1, 1), padding=(0, 3), bias=False)
    (bn): BatchNorm2d(128, eps=0.001, momentum=0.1, affine=True, track_running_stats=True)
  )
  (branch7x7dbl_4): BasicConv2d(
    (conv): Conv2d(128, 128, kernel_size=(7, 1), stride=(1, 1), padding=(3, 0), bias=False)
    (bn): BatchNorm2d(128, eps=0.001, momentum=0.1, affine=True, track_running_stats=True)
  )
  (branch7x7dbl_5): BasicConv2d(
    (conv): Conv2d(128, 192, kernel_size=(1, 7), stride=(1, 1), padding=(0, 3), bias=False)
    (bn): BatchNorm2d(192, eps=0.001, momentum=0.1, affine=True, track_running_stats=True)
  )
  (branch_pool): BasicConv2d(
    (conv): Conv2d(768, 192, kernel_size=(1, 1), stride=(1, 1), bias=False)
    (bn): BatchNorm2d(192, eps=0.001, momentum=0.1, affine=True, track_running_stats=True)
  )
)
output size:  torch.Size([4, 768, 72, 72])
________________________________
index:  10
input size:  torch.Size([4, 768, 72, 72])
layer:  InceptionC(
  (branch1x1): BasicConv2d(
    (conv): Conv2d(768, 192, kernel_size=(1, 1), stride=(1, 1), bias=False)
    (bn): BatchNorm2d(192, eps=0.001, momentum=0.1, affine=True, track_running_stats=True)
  )
  (branch7x7_1): BasicConv2d(
    (conv): Conv2d(768, 160, kernel_size=(1, 1), stride=(1, 1), bias=False)
    (bn): BatchNorm2d(160, eps=0.001, momentum=0.1, affine=True, track_running_stats=True)
  )
  (branch7x7_2): BasicConv2d(
    (conv): Conv2d(160, 160, kernel_size=(1, 7), stride=(1, 1), padding=(0, 3), bias=False)
    (bn): BatchNorm2d(160, eps=0.001, momentum=0.1, affine=True, track_running_stats=True)
  )
  (branch7x7_3): BasicConv2d(
    (conv): Conv2d(160, 192, kernel_size=(7, 1), stride=(1, 1), padding=(3, 0), bias=False)
    (bn): BatchNorm2d(192, eps=0.001, momentum=0.1, affine=True, track_running_stats=True)
  )
  (branch7x7dbl_1): BasicConv2d(
    (conv): Conv2d(768, 160, kernel_size=(1, 1), stride=(1, 1), bias=False)
    (bn): BatchNorm2d(160, eps=0.001, momentum=0.1, affine=True, track_running_stats=True)
  )
  (branch7x7dbl_2): BasicConv2d(
    (conv): Conv2d(160, 160, kernel_size=(7, 1), stride=(1, 1), padding=(3, 0), bias=False)
    (bn): BatchNorm2d(160, eps=0.001, momentum=0.1, affine=True, track_running_stats=True)
  )
  (branch7x7dbl_3): BasicConv2d(
    (conv): Conv2d(160, 160, kernel_size=(1, 7), stride=(1, 1), padding=(0, 3), bias=False)
    (bn): BatchNorm2d(160, eps=0.001, momentum=0.1, affine=True, track_running_stats=True)
  )
  (branch7x7dbl_4): BasicConv2d(
    (conv): Conv2d(160, 160, kernel_size=(7, 1), stride=(1, 1), padding=(3, 0), bias=False)
    (bn): BatchNorm2d(160, eps=0.001, momentum=0.1, affine=True, track_running_stats=True)
  )
  (branch7x7dbl_5): BasicConv2d(
    (conv): Conv2d(160, 192, kernel_size=(1, 7), stride=(1, 1), padding=(0, 3), bias=False)
    (bn): BatchNorm2d(192, eps=0.001, momentum=0.1, affine=True, track_running_stats=True)
  )
  (branch_pool): BasicConv2d(
    (conv): Conv2d(768, 192, kernel_size=(1, 1), stride=(1, 1), bias=False)
    (bn): BatchNorm2d(192, eps=0.001, momentum=0.1, affine=True, track_running_stats=True)
  )
)
output size:  torch.Size([4, 768, 72, 72])
________________________________
index:  11
input size:  torch.Size([4, 768, 72, 72])
layer:  InceptionC(
  (branch1x1): BasicConv2d(
    (conv): Conv2d(768, 192, kernel_size=(1, 1), stride=(1, 1), bias=False)
    (bn): BatchNorm2d(192, eps=0.001, momentum=0.1, affine=True, track_running_stats=True)
  )
  (branch7x7_1): BasicConv2d(
    (conv): Conv2d(768, 160, kernel_size=(1, 1), stride=(1, 1), bias=False)
    (bn): BatchNorm2d(160, eps=0.001, momentum=0.1, affine=True, track_running_stats=True)
  )
  (branch7x7_2): BasicConv2d(
    (conv): Conv2d(160, 160, kernel_size=(1, 7), stride=(1, 1), padding=(0, 3), bias=False)
    (bn): BatchNorm2d(160, eps=0.001, momentum=0.1, affine=True, track_running_stats=True)
  )
  (branch7x7_3): BasicConv2d(
    (conv): Conv2d(160, 192, kernel_size=(7, 1), stride=(1, 1), padding=(3, 0), bias=False)
    (bn): BatchNorm2d(192, eps=0.001, momentum=0.1, affine=True, track_running_stats=True)
  )
  (branch7x7dbl_1): BasicConv2d(
    (conv): Conv2d(768, 160, kernel_size=(1, 1), stride=(1, 1), bias=False)
    (bn): BatchNorm2d(160, eps=0.001, momentum=0.1, affine=True, track_running_stats=True)
  )
  (branch7x7dbl_2): BasicConv2d(
    (conv): Conv2d(160, 160, kernel_size=(7, 1), stride=(1, 1), padding=(3, 0), bias=False)
    (bn): BatchNorm2d(160, eps=0.001, momentum=0.1, affine=True, track_running_stats=True)
  )
  (branch7x7dbl_3): BasicConv2d(
    (conv): Conv2d(160, 160, kernel_size=(1, 7), stride=(1, 1), padding=(0, 3), bias=False)
    (bn): BatchNorm2d(160, eps=0.001, momentum=0.1, affine=True, track_running_stats=True)
  )
  (branch7x7dbl_4): BasicConv2d(
    (conv): Conv2d(160, 160, kernel_size=(7, 1), stride=(1, 1), padding=(3, 0), bias=False)
    (bn): BatchNorm2d(160, eps=0.001, momentum=0.1, affine=True, track_running_stats=True)
  )
  (branch7x7dbl_5): BasicConv2d(
    (conv): Conv2d(160, 192, kernel_size=(1, 7), stride=(1, 1), padding=(0, 3), bias=False)
    (bn): BatchNorm2d(192, eps=0.001, momentum=0.1, affine=True, track_running_stats=True)
  )
  (branch_pool): BasicConv2d(
    (conv): Conv2d(768, 192, kernel_size=(1, 1), stride=(1, 1), bias=False)
    (bn): BatchNorm2d(192, eps=0.001, momentum=0.1, affine=True, track_running_stats=True)
  )
)
output size:  torch.Size([4, 768, 72, 72])
________________________________
index:  12
input size:  torch.Size([4, 768, 72, 72])
layer:  InceptionC(
  (branch1x1): BasicConv2d(
    (conv): Conv2d(768, 192, kernel_size=(1, 1), stride=(1, 1), bias=False)
    (bn): BatchNorm2d(192, eps=0.001, momentum=0.1, affine=True, track_running_stats=True)
  )
  (branch7x7_1): BasicConv2d(
    (conv): Conv2d(768, 192, kernel_size=(1, 1), stride=(1, 1), bias=False)
    (bn): BatchNorm2d(192, eps=0.001, momentum=0.1, affine=True, track_running_stats=True)
  )
  (branch7x7_2): BasicConv2d(
    (conv): Conv2d(192, 192, kernel_size=(1, 7), stride=(1, 1), padding=(0, 3), bias=False)
    (bn): BatchNorm2d(192, eps=0.001, momentum=0.1, affine=True, track_running_stats=True)
  )
  (branch7x7_3): BasicConv2d(
    (conv): Conv2d(192, 192, kernel_size=(7, 1), stride=(1, 1), padding=(3, 0), bias=False)
    (bn): BatchNorm2d(192, eps=0.001, momentum=0.1, affine=True, track_running_stats=True)
  )
  (branch7x7dbl_1): BasicConv2d(
    (conv): Conv2d(768, 192, kernel_size=(1, 1), stride=(1, 1), bias=False)
    (bn): BatchNorm2d(192, eps=0.001, momentum=0.1, affine=True, track_running_stats=True)
  )
  (branch7x7dbl_2): BasicConv2d(
    (conv): Conv2d(192, 192, kernel_size=(7, 1), stride=(1, 1), padding=(3, 0), bias=False)
    (bn): BatchNorm2d(192, eps=0.001, momentum=0.1, affine=True, track_running_stats=True)
  )
  (branch7x7dbl_3): BasicConv2d(
    (conv): Conv2d(192, 192, kernel_size=(1, 7), stride=(1, 1), padding=(0, 3), bias=False)
    (bn): BatchNorm2d(192, eps=0.001, momentum=0.1, affine=True, track_running_stats=True)
  )
  (branch7x7dbl_4): BasicConv2d(
    (conv): Conv2d(192, 192, kernel_size=(7, 1), stride=(1, 1), padding=(3, 0), bias=False)
    (bn): BatchNorm2d(192, eps=0.001, momentum=0.1, affine=True, track_running_stats=True)
  )
  (branch7x7dbl_5): BasicConv2d(
    (conv): Conv2d(192, 192, kernel_size=(1, 7), stride=(1, 1), padding=(0, 3), bias=False)
    (bn): BatchNorm2d(192, eps=0.001, momentum=0.1, affine=True, track_running_stats=True)
  )
  (branch_pool): BasicConv2d(
    (conv): Conv2d(768, 192, kernel_size=(1, 1), stride=(1, 1), bias=False)
    (bn): BatchNorm2d(192, eps=0.001, momentum=0.1, affine=True, track_running_stats=True)
  )
)
output size:  torch.Size([4, 768, 72, 72])
________________________________
index:  13
index:  14
input size:  torch.Size([4, 768, 72, 72])
layer:  InceptionD(
  (branch3x3_1): BasicConv2d(
    (conv): Conv2d(768, 192, kernel_size=(1, 1), stride=(1, 1), bias=False)
    (bn): BatchNorm2d(192, eps=0.001, momentum=0.1, affine=True, track_running_stats=True)
  )
  (branch3x3_2): BasicConv2d(
    (conv): Conv2d(192, 320, kernel_size=(3, 3), stride=(2, 2), bias=False)
    (bn): BatchNorm2d(320, eps=0.001, momentum=0.1, affine=True, track_running_stats=True)
  )
  (branch7x7x3_1): BasicConv2d(
    (conv): Conv2d(768, 192, kernel_size=(1, 1), stride=(1, 1), bias=False)
    (bn): BatchNorm2d(192, eps=0.001, momentum=0.1, affine=True, track_running_stats=True)
  )
  (branch7x7x3_2): BasicConv2d(
    (conv): Conv2d(192, 192, kernel_size=(1, 7), stride=(1, 1), padding=(0, 3), bias=False)
    (bn): BatchNorm2d(192, eps=0.001, momentum=0.1, affine=True, track_running_stats=True)
  )
  (branch7x7x3_3): BasicConv2d(
    (conv): Conv2d(192, 192, kernel_size=(7, 1), stride=(1, 1), padding=(3, 0), bias=False)
    (bn): BatchNorm2d(192, eps=0.001, momentum=0.1, affine=True, track_running_stats=True)
  )
  (branch7x7x3_4): BasicConv2d(
    (conv): Conv2d(192, 192, kernel_size=(3, 3), stride=(2, 2), bias=False)
    (bn): BatchNorm2d(192, eps=0.001, momentum=0.1, affine=True, track_running_stats=True)
  )
)
output size:  torch.Size([4, 1280, 35, 35])
________________________________
index:  15
input size:  torch.Size([4, 1280, 35, 35])
layer:  InceptionE(
  (branch1x1): BasicConv2d(
    (conv): Conv2d(1280, 320, kernel_size=(1, 1), stride=(1, 1), bias=False)
    (bn): BatchNorm2d(320, eps=0.001, momentum=0.1, affine=True, track_running_stats=True)
  )
  (branch3x3_1): BasicConv2d(
    (conv): Conv2d(1280, 384, kernel_size=(1, 1), stride=(1, 1), bias=False)
    (bn): BatchNorm2d(384, eps=0.001, momentum=0.1, affine=True, track_running_stats=True)
  )
  (branch3x3_2a): BasicConv2d(
    (conv): Conv2d(384, 384, kernel_size=(1, 3), stride=(1, 1), padding=(0, 1), bias=False)
    (bn): BatchNorm2d(384, eps=0.001, momentum=0.1, affine=True, track_running_stats=True)
  )
  (branch3x3_2b): BasicConv2d(
    (conv): Conv2d(384, 384, kernel_size=(3, 1), stride=(1, 1), padding=(1, 0), bias=False)
    (bn): BatchNorm2d(384, eps=0.001, momentum=0.1, affine=True, track_running_stats=True)
  )
  (branch3x3dbl_1): BasicConv2d(
    (conv): Conv2d(1280, 448, kernel_size=(1, 1), stride=(1, 1), bias=False)
    (bn): BatchNorm2d(448, eps=0.001, momentum=0.1, affine=True, track_running_stats=True)
  )
  (branch3x3dbl_2): BasicConv2d(
    (conv): Conv2d(448, 384, kernel_size=(3, 3), stride=(1, 1), padding=(1, 1), bias=False)
    (bn): BatchNorm2d(384, eps=0.001, momentum=0.1, affine=True, track_running_stats=True)
  )
  (branch3x3dbl_3a): BasicConv2d(
    (conv): Conv2d(384, 384, kernel_size=(1, 3), stride=(1, 1), padding=(0, 1), bias=False)
    (bn): BatchNorm2d(384, eps=0.001, momentum=0.1, affine=True, track_running_stats=True)
  )
  (branch3x3dbl_3b): BasicConv2d(
    (conv): Conv2d(384, 384, kernel_size=(3, 1), stride=(1, 1), padding=(1, 0), bias=False)
    (bn): BatchNorm2d(384, eps=0.001, momentum=0.1, affine=True, track_running_stats=True)
  )
  (branch_pool): BasicConv2d(
    (conv): Conv2d(1280, 192, kernel_size=(1, 1), stride=(1, 1), bias=False)
    (bn): BatchNorm2d(192, eps=0.001, momentum=0.1, affine=True, track_running_stats=True)
  )
)
output size:  torch.Size([4, 2048, 35, 35])
________________________________
index:  16
input size:  torch.Size([4, 2048, 35, 35])
layer:  InceptionE(
  (branch1x1): BasicConv2d(
    (conv): Conv2d(2048, 320, kernel_size=(1, 1), stride=(1, 1), bias=False)
    (bn): BatchNorm2d(320, eps=0.001, momentum=0.1, affine=True, track_running_stats=True)
  )
  (branch3x3_1): BasicConv2d(
    (conv): Conv2d(2048, 384, kernel_size=(1, 1), stride=(1, 1), bias=False)
    (bn): BatchNorm2d(384, eps=0.001, momentum=0.1, affine=True, track_running_stats=True)
  )
  (branch3x3_2a): BasicConv2d(
    (conv): Conv2d(384, 384, kernel_size=(1, 3), stride=(1, 1), padding=(0, 1), bias=False)
    (bn): BatchNorm2d(384, eps=0.001, momentum=0.1, affine=True, track_running_stats=True)
  )
  (branch3x3_2b): BasicConv2d(
    (conv): Conv2d(384, 384, kernel_size=(3, 1), stride=(1, 1), padding=(1, 0), bias=False)
    (bn): BatchNorm2d(384, eps=0.001, momentum=0.1, affine=True, track_running_stats=True)
  )
  (branch3x3dbl_1): BasicConv2d(
    (conv): Conv2d(2048, 448, kernel_size=(1, 1), stride=(1, 1), bias=False)
    (bn): BatchNorm2d(448, eps=0.001, momentum=0.1, affine=True, track_running_stats=True)
  )
  (branch3x3dbl_2): BasicConv2d(
    (conv): Conv2d(448, 384, kernel_size=(3, 3), stride=(1, 1), padding=(1, 1), bias=False)
    (bn): BatchNorm2d(384, eps=0.001, momentum=0.1, affine=True, track_running_stats=True)
  )
  (branch3x3dbl_3a): BasicConv2d(
    (conv): Conv2d(384, 384, kernel_size=(1, 3), stride=(1, 1), padding=(0, 1), bias=False)
    (bn): BatchNorm2d(384, eps=0.001, momentum=0.1, affine=True, track_running_stats=True)
  )
  (branch3x3dbl_3b): BasicConv2d(
    (conv): Conv2d(384, 384, kernel_size=(3, 1), stride=(1, 1), padding=(1, 0), bias=False)
    (bn): BatchNorm2d(384, eps=0.001, momentum=0.1, affine=True, track_running_stats=True)
  )
  (branch_pool): BasicConv2d(
    (conv): Conv2d(2048, 192, kernel_size=(1, 1), stride=(1, 1), bias=False)
    (bn): BatchNorm2d(192, eps=0.001, momentum=0.1, affine=True, track_running_stats=True)
  )
)
output size:  torch.Size([4, 2048, 35, 35])
________________________________
index:  17
$$$$$$$$$$$$$$$$$$$$$$$$$$$$$$forwarding to fc
input size:  torch.Size([4, 2508800])
layer:  Linear(in_features=2508800, out_features=2, bias=True)
output size:  torch.Size([4, 2])
________________________________
